…
2022-04-19 10:23:24,452 - INFO - Testing model on  5240 audio files.
2022-04-19 10:23:24,452 - INFO - Train/Test ratio: 4.0
2022-04-19 10:23:24,452 - INFO - Real/Fake ratio in training: 1.0 (pos_weight)
2022-04-19 10:23:27,460 - INFO - Model summary:
==========================================================================================
Layer (type:depth-idx)                   Output Shape              Param #
==========================================================================================
TSSD                                     --                        --
├─Conv1d: 1-1                            [256, 16, 64600]          112
├─BatchNorm1d: 1-2                       [256, 16, 64600]          32
├─RSM1D: 1-3                             [256, 32, 16150]          --
│    └─Conv1d: 2-1                       [256, 32, 16150]          1,536
│    └─BatchNorm1d: 2-2                  [256, 32, 16150]          64
│    └─Conv1d: 2-3                       [256, 32, 16150]          3,072
│    └─BatchNorm1d: 2-4                  [256, 32, 16150]          64
│    └─Conv1d: 2-5                       [256, 32, 16150]          3,072
│    └─Conv1d: 2-6                       [256, 32, 16150]          512
│    └─BatchNorm1d: 2-7                  [256, 32, 16150]          64
├─RSM1D: 1-4                             [256, 64, 4037]           --
│    └─Conv1d: 2-8                       [256, 64, 4037]           6,144
│    └─BatchNorm1d: 2-9                  [256, 64, 4037]           128
│    └─Conv1d: 2-10                      [256, 64, 4037]           12,288
│    └─BatchNorm1d: 2-11                 [256, 64, 4037]           128
│    └─Conv1d: 2-12                      [256, 64, 4037]           12,288
│    └─Conv1d: 2-13                      [256, 64, 4037]           2,048
│    └─BatchNorm1d: 2-14                 [256, 64, 4037]           128
├─RSM1D: 1-5                             [256, 128, 1009]          --
│    └─Conv1d: 2-15                      [256, 128, 1009]          24,576
│    └─BatchNorm1d: 2-16                 [256, 128, 1009]          256
│    └─Conv1d: 2-17                      [256, 128, 1009]          49,152
│    └─BatchNorm1d: 2-18                 [256, 128, 1009]          256
│    └─Conv1d: 2-19                      [256, 128, 1009]          49,152
│    └─Conv1d: 2-20                      [256, 128, 1009]          8,192
│    └─BatchNorm1d: 2-21                 [256, 128, 1009]          256
├─RSM1D: 1-6                             [256, 128, 252]           --
│    └─Conv1d: 2-22                      [256, 128, 252]           49,152
│    └─BatchNorm1d: 2-23                 [256, 128, 252]           256
│    └─Conv1d: 2-24                      [256, 128, 252]           49,152
│    └─BatchNorm1d: 2-25                 [256, 128, 252]           256
│    └─Conv1d: 2-26                      [256, 128, 252]           49,152
│    └─Conv1d: 2-27                      [256, 128, 252]           16,384
│    └─BatchNorm1d: 2-28                 [256, 128, 252]           256
├─Linear: 1-7                            [256, 64]                 8,256
├─Linear: 1-8                            [256, 32]                 2,080
├─Linear: 1-9                            [256, 1]                  33
==========================================================================================
Total params: 348,497
Trainable params: 348,497
Non-trainable params: 0
Total mult-adds (G): 114.02
==========================================================================================
Input size (MB): 66.15
Forward/backward pass size (MB): 17660.58
Params size (MB): 1.39
Estimated Total Size (MB): 17728.12
…
